…
        "id": "IbdD24hWgDk7",
        "colab": {
          "base_uri": "https://localhost:8080/"
        },
        "outputId": "e796a354-0294-45c4-9c9a-dc6ead954182"
      },
      "outputs": [
        {
          "output_type": "stream",
          "name": "stdout",
          "text": [
            "Model: \"sequential\"\n",
            "_________________________________________________________________\n",
            " Layer (type)                Output Shape              Param #   \n",
            "=================================================================\n",
            " conv2d (Conv2D)             (None, 28, 28, 28)        56        \n",
            "                                                                 \n",
            " activation (Activation)     (None, 28, 28, 28)        0         \n",
            "                                                                 \n",
            " batch_normalization (BatchN  (None, 28, 28, 28)       112       \n",
            " ormalization)                                                   \n",
            "                                                                 \n",
            " conv2d_1 (Conv2D)           (None, 28, 28, 28)        812       \n",
            "                                                                 \n",
            " activation_1 (Activation)   (None, 28, 28, 28)        0         \n",
            "                                                                 \n",
            " batch_normalization_1 (Batc  (None, 28, 28, 28)       112       \n",
            " hNormalization)                                                 \n",
            "                                                                 \n",
            " max_pooling2d (MaxPooling2D  (None, 14, 14, 28)       0         \n",
            " )                                                               \n",
            "                                                                 \n",
            " conv2d_2 (Conv2D)           (None, 14, 14, 56)        1624      \n",
            "                                                                 \n",
            " activation_2 (Activation)   (None, 14, 14, 56)        0         \n",
            "                                                                 \n",
            " batch_normalization_2 (Batc  (None, 14, 14, 56)       224       \n",
            " hNormalization)                                                 \n",
            "                                                                 \n",
            " conv2d_3 (Conv2D)           (None, 14, 14, 56)        3192      \n",
            "                                                                 \n",
            " activation_3 (Activation)   (None, 14, 14, 56)        0         \n",
            "                                                                 \n",
            " batch_normalization_3 (Batc  (None, 14, 14, 56)       224       \n",
            " hNormalization)                                                 \n",
            "                                                                 \n",
            " max_pooling2d_1 (MaxPooling  (None, 7, 7, 56)         0         \n",
            " 2D)                                                             \n",
            "                                                                 \n",
            " flatten (Flatten)           (None, 2744)              0         \n",
            "                                                                 \n",
            " dropout (Dropout)           (None, 2744)              0         \n",
            "                                                                 \n",
            " dense (Dense)               (None, 70)                192150    \n",
            "                                                                 \n",
            " activation_4 (Activation)   (None, 70)                0         \n",
            "                                                                 \n",
            " batch_normalization_4 (Batc  (None, 70)               280       \n",
            " hNormalization)                                                 \n",
            "                                                                 \n",
            " dropout_1 (Dropout)         (None, 70)                0         \n",
            "                                                                 \n",
            " dense_1 (Dense)             (None, 60)                4260      \n",
            "                                                                 \n",
            " activation_5 (Activation)   (None, 60)                0         \n",
            "                                                                 \n",
            " batch_normalization_5 (Batc  (None, 60)               240       \n",
            " hNormalization)                                                 \n",
            "                                                                 \n",
            " dropout_2 (Dropout)         (None, 60)                0         \n",
            "                                                                 \n",
            " dense_2 (Dense)             (None, 60)                3660      \n",
            "                                                                 \n",
            " activation_6 (Activation)   (None, 60)                0         \n",
            "                                                                 \n",
            " batch_normalization_6 (Batc  (None, 60)               240       \n",
            " hNormalization)                                                 \n",
            "                                                                 \n",
            " dropout_3 (Dropout)         (None, 60)                0         \n",
            "                                                                 \n",
            " dense_3 (Dense)             (None, 10)                610       \n",
            "                                                                 \n",
            " MnistModel (Activation)     (None, 10)                0         \n",
            "                                                                 \n",
            "=================================================================\n",
            "Total params: 207,796\n",
            "Trainable params: 207,080\n",
            "Non-trainable params: 716\n",
            "_________________________________________________________________\n"
          ]
        }
…
